Train/model/lenet_model.pt (torch, 250480 bytes, 10 tensors)

conv1.weight f4 [6, 1, 5, 5]
0	0x3e0b34ed	0.13594408
1	0xbdd7e5e6	-0.105418965
2	0xbe373b4e	-0.17893717
3	0x3dce8fd9	0.100860305
4	0xbd0f4930	-0.034981906
5	0x3e375491	0.17903353
6	0x3e55da80	0.20884132
7	0xba34617b	-0.0006880981
8	0x3de7a0d7	0.11309975
9	0x3e1c4484	0.15260512
10	0xbdd530e7	-0.10409718
11	0x3e542414	0.20716888
12	0xbd9b3c66	-0.075798795
13	0xbb127c40	-0.002235189
14	0x3e4a031e	0.19727752
15	0x3e2dc6d1	0.16970374
16	0xbbbafd06	-0.0057064323
17	0xbdb735ce	-0.08945809
18	0xbdebf0cb	-0.11520537
19	0x3c1cb1ea	0.009563902
20	0xbd2d6a2d	-0.042337585
21	0xbdf31369	-0.118689366
22	0x3d9767e9	0.07392866
23	0xbde1d241	-0.11026431
24	0xbe32e5d2	-0.17470482
25	0x3ddfecfc	0.10933873
26	0xbd95d18d	-0.07315359
27	0xbe36dfcc	-0.17858809
28	0xbe834e93	-0.25645885
29	0x3d592b1e	0.053019635
30	0x3e3df4b5	0.1855038
31	0x3c5cedce	0.013484431
32	0x3dc79c0d	0.09746561
33	0x3e578b59	0.2104925
34	0x3e3f4b88	0.18681157
35	0x3c7868ae	0.015161676
36	0x3d4ef728	0.050528675
37	0x3e8c98ea	0.27460414
38	0x3d5db7cf	0.05413037
39	0x3e86c664	0.26323235
40	0xbdeccf90	-0.11563027
41	0x3d7efe2b	0.062254112
42	0x3e90dd8a	0.2829402
43	0x3e938a73	0.28816566
44	0x3e1ae348	0.15125763
45	0xbec0d59d	-0.37662974
46	0xbe22e421	-0.15907337
47	0x3d0471f5	0.03233524
48	0x3e302fec	0.1720578
49	0xbcd50dd2	-0.026007567
50	0x3badebee	0.005307666
51	0xbdd01482	-0.101601616
52	0xbe84ad73	-0.2591358
53	0x3e0d44ee	0.13795826
54	0xbd1d49fc	-0.038400635
55	0x3d04cd3c	0.03242229
56	0xbd3e6bbd	-0.046489466
57	0xbe84cd34	-0.25937808
58	0x3e391f4d	0.18078347
59	0x3e6e8c82	0.23295787
60	0xbe903422	-0.28164774
61	0xbeab5bc9	-0.33468464
62	0xbe0da5a1	-0.13832714
63	0x3ea42fb9	0.3206766
64	0xbd754310	-0.05987841
65	0xbe352d30	-0.17693019
66	0xbe0f87e9	-0.1401669
67	0x3d4fc7c0	0.050727606
68	0x3e9c98fe	0.30585474
69	0x3e811b92	0.25216347
70	0xbc62ce3f	-0.013843118
71	0x3d383dad	0.044980694
72	0xbc9140a0	-0.01773101
73	0x3e4e2053	0.20129518
74	0x3dbaf194	0.091281086
75	0xbe397782	-0.18111995
76	0xbe6e82f4	-0.23292142
77	0xbed7107a	-0.42004758
78	0x3d24c52c	0.0402271
79	0x3e2b9174	0.16754705
80	0xbed7eb83	-0.4217187
81	0xbdd45a39	-0.10368771
82	0xbe1968c8	-0.14981377
83	0xbc995474	-0.018717028
84	0x3e9a4a81	0.30134967
85	0xbe46d1f2	-0.19416025
86	0x3e0e2956	0.13882956
87	0x3e711a6e	0.23545238
88	0x3e55dce5	0.20885046
89	0x3db17818	0.08665484
90	0x3ce607bf	0.028079866
91	0x3d6b0e14	0.057386473
92	0x3ddb5041	0.107086666
93	0x3e0785fc	0.13234705
94	0x3e16864a	0.14699665
95	0x3e8123a9	0.2522252
96	0x3e43304a	0.1906139
97	0x3e0b138c	0.13581675
98	0x3cb9c173	0.022675252
99	0xbe24100a	-0.16021743
100	0x3e20561a	0.15657845
101	0xbe3c4a2e	-0.18387672
102	0xbeae3a23	-0.3402873
103	0xbe9f78ec	-0.31146944
104	0x3e86034a	0.26174384
105	0x3d9dc2d7	0.077031784
106	0xbe2ac0f9	-0.16675176
107	0xbe57fcdd	-0.21092553
108	0x3da081fb	0.07837292
109	0x3e173094	0.14764625
110	0xbd4af1d1	-0.04954702
111	0xbe9d6737	-0.3074281
112	0xbe771af1	-0.24131371
113	0x3db288a7	0.087174706
114	0x3eafed2e	0.3436064
115	0x3cdc9f87	0.026931537
116	0xbea6b762	-0.32561785
117	0x3d6071b7	0.054795947
118	0x3bd9bfcc	0.0066451784
119	0x3deb4ce8	0.11489278
120	0xbe4db4c3	-0.20088486
121	0xbe4a3006	-0.19744882
122	0xbe88751a	-0.2665184
123	0xbc8719ba	-0.01649176
124	0x3e433093	0.19061498
125	0x3dfe4c5d	0.12416909
126	0xbd591809	-0.053001437
127	0x3dfe60f8	0.12420839
128	0xbd94b612	-0.0726129
129	0x3d804b6b	0.06264385
130	0xbdbbcf21	-0.09170366
131	0x3d776a02	0.06040383
132	0x3e2417a8	0.16024649
133	0x3e545769	0.2073647
134	0x3bdf64c2	0.006817431
135	0x3e1ea98e	0.15494367
136	0x3df1b849	0.11802728
137	0x3d3b4d25	0.045727868
138	0x3e3b56a4	0.1829477
139	0x3dc0d32c	0.09415278
140	0x3d00d537	0.031453338
141	0x3e26ce75	0.16289695
142	0x3c5f5749	0.01363165
143	0x3e6083ea	0.21925321
144	0xbcecb5ac	-0.028895222
145	0xbd032486	-0.032017253
146	0xbdf9e95a	-0.122027114
147	0xbd51c87a	-0.05121658
148	0x3989d364	0.00026288175
149	0xbe3f2258	-0.18665445

conv1.bias f4 [6]
0	0x3e8f2cfa	0.27964002
1	0x3e8afb70	0.27144957
2	0xbcc77ef4	-0.024352528
3	0xbdf8e34e	-0.1215273
4	0x3db8271c	0.089918345
5	0xbd12049c	-0.035648927

conv2.weight f4 [16, 6, 5, 5]
0	0x3d0948a6	0.03351655
1	0xbda99747	-0.08280807
2	0x3c1fc2c3	0.009751025
3	0x3b9e041c	0.004822267
4	0x3d91fab5	0.07127897
5	0x3d4aef3c	0.049544558
6	0xbd833397	-0.06406324
7	0x3d137de2	0.036008723
8	0xbd07a331	-0.033114616
9	0xba9a1a99	-0.0011757194
10	0x3b5835c8	0.003299104
11	0xbd103aae	-0.03521221
12	0x3d12e6fe	0.035864823
13	0xbb3589de	-0.0027700583
14	0x3d30fadb	0.043207984
15	0xbdeeaac3	-0.11653664
16	0xbdb68221	-0.08911539
17	0xbd6486bf	-0.055792566
18	0x3d052fc0	0.03251624
19	0xbd969e1c	-0.07354376
20	0xbd8ee983	-0.069781326
21	0x3d6454bf	0.055744883
22	0x3d802d09	0.0625859
23	0x3d85e9ec	0.06538758
24	0x3d0369e0	0.032083392
25	0x39bdbeb0	0.00036190962
26	0x3dae4b1d	0.085104205
27	0x3b1a0f8e	0.0023507806
28	0x3d6b7973	0.05748887
29	0xbd081703	-0.03322507
30	0x3d8344e9	0.06409628
31	0x3dca6be4	0.0988386
32	0x3d5c6b0a	0.053813018
33	0x3dff15de	0.12455343
34	0x3d0cbe5a	0.03436122
35	0xbe593be4	-0.21214253
36	0xbe0df0ef	-0.1386144
37	0xbd885a52	-0.06657852
38	0x3d002802	0.031288154
39	0x3d9e1145	0.07718138
40	0xbdfa6358	-0.122259796
41	0xbd934811	-0.0719148
42	0x3d0084e9	0.031376753
43	0x3da94b67	0.08266335
44	0xbbb78e6c	-0.005601695
45	0x3d1fae95	0.038984854
46	0xbbd79d16	-0.0065800054
47	0x3d68bc15	0.056819994
48	0x3da89e5d	0.082333304
49	0x3d412ec8	0.047163755
50	0xbd912891	-0.070878156
51	0xbc93da81	-0.018048527
52	0x3e144c3c	0.14482206
53	0x3dd6393d	0.10460136
54	0xbdc34f44	-0.09536603
55	0xbd9ffabe	-0.07811497
56	0xbdb3336f	-0.087500446
57	0xbd9ead1a	-0.0774786
58	0xbe3cd9f6	-0.1844252
59	0xbe0b09d5	-0.1357797
60	0xbd9019a9	-0.07036144
61	0xbe62b6c3	-0.2214003
62	0xbe375503	-0.17903523
63	0xbe207951	-0.15671279
64	0xbdccdbc3	-0.10002854
65	0xbc9e9210	-0.019356757
66	0xbcf1ddb9	-0.02952467
67	0x3c8ba64d	0.017047072
68	0xbdb30cd6	-0.08742683
69	0x3d83a7d7	0.06428497
70	0x3df1a545	0.11799101
71	0x3dc0cdc1	0.094142444
72	0x3d9e6450	0.07733977
73	0x3d0af490	0.03392464
74	0x3dcb673a	0.09931798
75	0xbd9b641b	-0.07587453
76	0x3cdb2c6d	0.026754582
77	0x3e214740	0.15749836
78	0x3e4e92af	0.20173143
79	0x3dbab8b9	0.09117264
80	0xbe0f4af5	-0.13993438
81	0x3ce99ec4	0.028518088
82	0x3b4a52db	0.003087214
83	0x3c8c1bc6	0.017103087
84	0xbe06bb94	-0.13157493
85	0xbdaf1e38	-0.08550686
86	0xbe096181	-0.13416101
87	0xbdf3cab0	-0.11903894
88	0xbe460409	-0.19337477
89	0xbe137411	-0.14399745
90	0xbc9a2efb	-0.01882123
91	0x3d5da96b	0.054116648
92	0x3d0ddb85	0.03463318
93	0x3dd5e2e0	0.104436636
94	0xbc9935de	-0.018702444
95	0x3c8df4d5	0.01732866
96	0x3e59a1b2	0.21253088
97	0x3e0d012f	0.13769983
98	0x3d69fc26	0.057125233
99	0x3d3d1499	0.04616222
100	0x3c75c998	0.015001677
101	0x3c5f0460	0.013611883
102	0xbd1ff3a9	-0.03905073
103	0xbda2d749	-0.07951219
104	0x3d863225	0.06552533
105	0x3d0041d3	0.031312775
106	0xbe0b0429	-0.13575806
107	0xbcf028ec	-0.029316388
108	0xbde7bdd0	-0.11315501
109	0x3d66042d	0.056156326
110	0xbd7c40b9	-0.06158516
111	0xbe076740	-0.1322298
112	0xbd8cbf2c	-0.06872401
113	0x3cf12009	0.02943422
114	0x3ac417ff	0.0014960765
115	0xbd877df7	-0.06615823
116	0xbdb7d167	-0.08975487
117	0xbdea2093	-0.11431994
118	0x3cb51772	0.022105906
119	0x3d834bf8	0.06410974
120	0x3c13273d	0.008981523
121	0xbe16128e	-0.14655516
122	0xbb42e7a4	-0.002974012
123	0x3cf6c392	0.030122552
124	0x3e492a4b	0.1964504
125	0x3c25c6a8	0.010118164
126	0xbbda5209	-0.0066626114
127	0x3d18c488	0.0372968
128	0xbd8a2fac	-0.06747374
129	0xbcbc1b76	-0.022962313
130	0x3d956a57	0.07295673
131	0x3d903f64	0.07043341
132	0xbdaa6c71	-0.08321465
133	0x3d0c08c3	0.034188043
134	0xbdb5b6cf	-0.088727586
135	0xbd3ee938	-0.046609133
136	0xbcabce58	-0.020972416
137	0xbda2f32f	-0.0795654
138	0x3ccca25b	0.02497976
139	0x3c9c5fbb	0.019088617
140	0xbe152a4b	-0.14566915
141	0xbdf323f2	-0.118720904
142	0xbd9a917d	-0.07547281
143	0x3d9d9a57	0.076954536
144	0x3d957c94	0.07299152
145	0x3d021446	0.031757616
146	0x3d3fd589	0.046834502
147	0x3dcdd268	0.100498974
148	0x3dc8e652	0.09809555
149	0x3d85f9eb	0.06541809
150	0x3d04e9b6	0.032449447
151	0x3cdbafad	0.026817167
152	0x3d8c6714	0.06855598
153	0xbdbc9bb1	-0.09209383
154	0xbd35a473	-0.044346284
155	0x3c86b101	0.016441824
156	0x3cd11960	0.025524795
157	0x3d6967d9	0.056983802
158	0xbd33339b	-0.043750387
159	0xbcebb60b	-0.028773328
160	0xbd8991e0	-0.067172766
161	0x3c29d4a9	0.010365644
162	0xbc4ab1a4	-0.012371454
163	0x3cf4866a	0.02984925
164	0x3d5c7f94	0.053832605
165	0xbe0b4e2c	-0.13604039
166	0xbdf7827c	-0.12085435
167	0x3d06868f	0.03284317
168	0x3992efaa	0.00028025854
169	0x3cd423bf	0.025895951
170	0x3d8b9a8d	0.068165876
171	0xbdcfc91a	-0.10145779
172	0xbda45f5c	-0.08026001
173	0xbca71914	-0.0203977
174	0xbd223d8f	-0.039609488
175	0x3d6f9e6b	0.05850069
176	0x3cd6ef4f	0.026237158
177	0xbd80fa6b	-0.062977634
178	0xbdd37632	-0.10325278
179	0xbcd678f8	-0.02618073
180	0x3c9df217	0.019280476
181	0x3de84746	0.11341719
182	0x3db1fedb	0.08691188
183	0xbd98c54e	-0.07459508
184	0xbd98cfee	-0.074615344
185	0xbdfe3c35	-0.12413827
186	0xbc1f1918	-0.009710573
187	0x3df91631	0.12162436
188	0x3d05c38b	0.032657187
189	0xbd974783	-0.07386687
190	0xbe010d7c	-0.126028
191	0x3d261445	0.040546674
192	0x3d3526d1	0.04422647
193	0xbd18f9f5	-0.037347753
194	0xbcd8ee0f	-0.026480703
195	0xbdbf7558	-0.093485534
196	0xbc92872f	-0.017886726
197	0xbb8171ce	-0.003950334
198	0x3af35dee	0.0018567422
199	0x3df11e09	0.11773307
200	0x3d02a02f	0.031891044
201	0xbdb3ef77	-0.08785909
202	0x3c4c7642	0.012479367
203	0xbd2e7887	-0.042595413
204	0x3de0b3ec	0.109718174
205	0x3d5d4d09	0.054028545
206	0x3d8abae2	0.06773926
207	0x3c8e1b3a	0.017346967
208	0xbd95b4ae	-0.073098525
209	0xbbbb9759	-0.005724829
210	0xbd8f3c31	-0.069939025
211	0xbcff7227	-0.031182362
212	0x3dc07e4c	0.09399089
213	0xbd9a8b8f	-0.0754615
214	0xbe08652a	-0.13319841
215	0x3c82123e	0.01587784
216	0x3e18ba97	0.14914928
217	0x3e524d16	0.20537218
218	0xbd0bce48	-0.034132272
219	0xbdfbf33e	-0.12302254
220	0xbc614698	-0.013749741
221	0x3b58afe6	0.0033063828
222	0x3e1909b4	0.14945108
223	0x3d9702ce	0.07373582
224	0xbddfd64f	-0.10929548
225	0xbd7423ac	-0.05960433
226	0xbd2ee73a	-0.042700984
227	0xbde7b6a0	-0.1131413
228	0xbe352ea0	-0.17693567
229	0xbe096dae	-0.13420746
230	0x3d3e7afd	0.04650401
231	0xbd8ed6b3	-0.069745444
232	0xbd8a8d71	-0.06765259
233	0xbe146a7c	-0.14493746
234	0xbd8e6743	-0.06953289
235	0x3d85c525	0.06531743
236	0xbd7ba664	-0.06143798
237	0xbe43dd2a	-0.19127336
238	0xbe4c7124	-0.19965035
239	0xbd957dfa	-0.07299419
240	0x3e07b158	0.13251245
241	0x3cd90274	0.026490428
242	0xbd10f8b3	-0.035393428
243	0xbe88d85e	-0.26727575
244	0xbc0f3d50	-0.008742645
245	0x3dc0fb59	0.09422941
246	0x3db5d8cf	0.088792436
247	0xbcbef171	-0.023308488
248	0xbe2c6d5f	-0.16838597
249	0xbc5547c8	-0.013017602
250	0xbd0713af	-0.032977756
251	0x3ca8dcaf	0.020613043
252	0x3d5adbca	0.053432263
253	0xbd32e446	-0.04367473
254	0x3e0b6b8f	0.13615249
255	0xbd02bb83	-0.031917106

conv2.bias f4 [16]
0	0x3e03b539	0.128621
1	0x3bdee542	0.006802232
2	0x3be5bc0c	0.0070109423
3	0x3d6548fc	0.055977806
4	0xbe375ae8	-0.17905772
5	0x3e0bccac	0.13652295
6	0x3dc069cd	0.0939518
7	0x3d3fd367	0.04683247
8	0x3dc620b3	0.09674206
9	0x3c9338e4	0.017971464
10	0x3d3e6027	0.046478417
11	0xbcddba35	-0.02706633
12	0xbdfb5d3e	-0.12273644
13	0xbd131fbe	-0.035918944
14	0x3dfbe28b	0.12299069
15	0x3ca163fd	0.019700998

fc_1.weight f4 [120, 400]
0	0x3cc01cb6	0.02345119
1	0xbbc2d161	-0.00594537
2	0x3d797d17	0.06091031
3	0x3dc1ba4c	0.094593614
4	0x3d9d26f2	0.07673444
5	0x3d3497f6	0.044090234
6	0xbc00cfe2	-0.007862063
7	0xba82321b	-0.0009933145
8	0x3ce4f5e0	0.027949274
9	0xbd67eefe	-0.056624405
10	0xbdc3e0a8	-0.09564334
11	0xbd3dde6e	-0.046354704
12	0x3d2b7c98	0.04186687
13	0x3da4c2f4	0.08044997
14	0x3d447637	0.0479643
15	0xbde358f4	-0.11100951
16	0x3dbca725	0.09211568
17	0x3cfe8e27	0.031073643
18	0xbdb2fcb6	-0.08739607
19	0xbd036194	-0.03207548
20	0xbcc15795	-0.023601333
21	0x3d47230c	0.048617408
22	0x3d2cf52a	0.042225994
23	0xbcdf6616	-0.027270358
24	0x3c922ea8	0.017844513
25	0x3d7ae533	0.061253738
26	0x3d90a9d3	0.070636414
27	0xbd781911	-0.06057078
28	0x3d841dbc	0.06450984
29	0xbd0272db	-0.031847816
30	0x3c90414d	0.017609263
31	0xbcfcb7bc	-0.03084933
32	0xbd5d8637	-0.054083075
33	0xbcaeb52e	-0.021326628
34	0xbd3cb252	-0.046068497
35	0x3d1bd643	0.038046133
36	0xbd3b7a2f	-0.04577082
37	0xbd098919	-0.033578012
38	0x3cb9cb18	0.02267985
39	0xb877aa06	-5.9047736e-05
40	0xbd24cb38	-0.040232867
41	0x3cbbec5f	0.022939859
42	0xbd2a2ed5	-0.04154857
43	0xbb4317fe	-0.002976894
44	0x39954ecb	0.000284782
45	0xbdf851b4	-0.12124959
46	0x3d34de7a	0.044157483
47	0x3b0f13aa	0.002183179
48	0x3c511cc2	0.012763204
49	0xbcf3485e	-0.029697593
50	0xbd5edf3e	-0.05441212
51	0xbc974058	-0.018463299
52	0xbc9f2867	-0.019428445
53	0x39cd13e3	0.00039115464
54	0xbd899126	-0.06717138
55	0x3cd14c58	0.025549099
56	0xbb09553b	-0.0020955342
57	0xbadb3efa	-0.0016727143
58	0x3d5c3a13	0.05376632
59	0xbd19ced5	-0.037550766
60	0x3df312de	0.11868833
61	0x3d666787	0.056251075
62	0xbd07b9bd	-0.03313612
63	0xbc0654d4	-0.008198936
64	0xbd62f65d	-0.05541073
65	0x3dffe26f	0.12494361
66	0xbdc58f3e	-0.09646462
67	0xbd0978df	-0.033562537
68	0xbc5c7dce	-0.013457729
69	0xbd0dd44a	-0.034626283
70	0x3d3f39dd	0.046686042
71	0xbcc1d1df	-0.023659645
72	0xbd5a3341	-0.053271536
73	0x3d7c131e	0.06154167
74	0x3db01fe9	0.085998364
75	0x3ab3ba74	0.0013712184
76	0xbbb31c14	-0.0054659937
77	0x3e32f5c3	0.17476563
78	0x3ca51c40	0.020155072
79	0x3c506ea4	0.012721691
80	0xbd067e25	-0.032835145
81	0x3cfd7e87	0.030944122
82	0x3da82a6d	0.08211217
83	0xbd9c042b	-0.076179825
84	0x3da58fad	0.080840446
85	0x3d4e052e	0.05029791
86	0x3d3cbfd4	0.04608138
87	0xbd6f2546	-0.058385156
88	0x3d3d9a20	0.046289563
89	0x3e13fbe1	0.14451553
90	0xbd1e99d9	-0.03872094
91	0xbc2e3ff6	-0.010635367
92	0xbd46b536	-0.04851266
93	0xbcd28954	-0.025700249
94	0xbc88ce6f	-0.016699998
95	0x3d11d3d4	0.035602406
96	0x3cb4f1ee	0.022088017
97	0x3d893b12	0.0670072
98	0x3ca8e726	0.020618033
99	0xbc58936a	-0.01321874
100	0xbda87503	-0.08225443
101	0xbcb1cc89	-0.021703975
102	0x3cc726c4	0.024310477
103	0x3d1cebdf	0.03831088
104	0xbcb41d2f	-0.021986572
105	0x3d00fa95	0.031488974
106	0x3d2b78df	0.04186332
107	0x3db0824b	0.086186014
108	0x3d1f7bc0	0.038936377
109	0xbd28c0aa	-0.041199364
110	0xbd91ffd3	-0.07128873
111	0x3e205e3c	0.15660948
112	0xbd8524f9	-0.065011926
113	0x3b4215f5	0.0029615138
114	0x3c144c68	0.00905142
115	0xbdd13b6f	-0.10216414
116	0x3d736623	0.059423577
117	0x3c8e7f68	0.017394736
118	0x3c32b5ff	0.010907649
119	0x3cbdc844	0.023166783
120	0xbd6ee91d	-0.058327783
121	0x3e2849d5	0.16434415
122	0x3dd3c286	0.10339837
123	0x3d21cb43	0.039500486
124	0xbbc6c108	-0.0060654916
125	0xbb874ae3	-0.0041288002
126	0x3dd2cb35	0.10292665
127	0xbc0628a4	-0.0081884
128	0xbd55a00e	-0.052154593
129	0x3c856978	0.016285643
130	0x3da6161c	0.08109686
131	0x3dd30abe	0.10304783
132	0x3d54844c	0.05188398
133	0xbc7aec6c	-0.015315156
134	0x3d90b021	0.07064844
135	0xbdb5a823	-0.0886996
136	0x3ca05e73	0.019576287
137	0xbd89333e	-0.06699227
138	0x3d3dd345	0.04634406
139	0xbcd96444	-0.026537068
140	0xbdaa5fa9	-0.08319027
141	0xbce40821	-0.027835907
142	0xbbdec6ea	-0.0067986147
143	0x3d5d243b	0.05398963
144	0xbd33fc4e	-0.04394179
145	0xbde5c822	-0.11219813
146	0xbd1b5b0c	-0.037928626
147	0xbd92d87e	-0.07170199
148	0xbc8eceb3	-0.017432546
149	0x3c98327d	0.018578762
150	0x3d2a2cf1	0.041546766
151	0xbccb6002	-0.024826054
152	0xbd06cdfd	-0.03291129
153	0x3d40dde4	0.04708661
154	0x3cb0c39a	0.021577645
155	0xbd04d7b7	-0.032432284
156	0xbc0919a5	-0.008367931
157	0x3c5c8c1e	0.013461141
158	0xbbb64f09	-0.005563621
159	0xbc5bfd90	-0.013427153
160	0xbcf9906b	-0.030464372
161	0x3cfc32b2	0.030785892
162	0xbcb28512	-0.021791968
163	0xbd117106	-0.03550818
164	0x3d4175e0	0.047231555
165	0xbd5cc5d6	-0.05389961
166	0x3cd5e72c	0.026111208
167	0x3d8a08c1	0.06739951
168	0x3da2197c	0.07915017
169	0x3cf66bc1	0.030080678
170	0x3e30632d	0.17225333
171	0x3d7b2f60	0.061324477
172	0x3d392e45	0.04521014
173	0x3bdcdada	0.0067399563
174	0xbdb8f2c3	-0.09030678
175	0x3d15aefa	0.036543824
176	0xbca4f1e4	-0.020134874
177	0x3c87cc65	0.016576955
178	0x3d7bd7dd	0.06148516
179	0x3d96b0b5	0.07357923
180	0x3ccaea55	0.024769941
181	0xbd1f9bbf	-0.03896689
182	0x3ca10a3b	0.019658199
183	0x3d8f7ac8	0.070058405
184	0xbd2d38a4	-0.042290345
185	0xbdfe62ce	-0.12421189
186	0xbd01675d	-0.031592716
187	0x3dda69a0	0.106646776
188	0xbcbbf700	-0.022944927
189	0x3c9cbaea	0.019132096
190	0x3db7e9bc	0.08980128
191	0x3c6bb855	0.01438721
192	0xbcd0324c	-0.025414608
193	0x3d041f96	0.032256685
194	0x3ddf3e45	0.10900549
195	0x3c8d420d	0.01724341
196	0x3cbd1dc6	0.023085486
197	0xbc7cec1b	-0.015437151
198	0x3baae3e9	0.0052151573
199	0xbd0322d0	-0.03201562
200	0xbda2454e	-0.07923375
201	0xbd31a87b	-0.043373566
202	0x3c831514	0.016001262
203	0xbcbc943b	-0.0230199
204	0x3dd262d8	0.10272759
205	0xbcab0114	-0.020874538
206	0x3b7f538f	0.0038959717
207	0x3c9ee5d1	0.019396694
208	0xbc3e980c	-0.0116329305
209	0xbc063db3	-0.008193421
210	0x3a3351ae	0.00068404793
211	0xbd3c0800	-0.045906067
212	0x3cbb0878	0.022831187
213	0xbd977684	-0.07395652
214	0x3d282dbb	0.041059237
215	0xbd91b9cb	-0.07115515
216	0x3c50f4bb	0.012753661
217	0xbd8a78c6	-0.06761317
218	0x3c0b8630	0.0085158795
219	0x3ca4dd7e	0.020125147
220	0x3db7fa11	0.08983243
221	0xbc8cf822	-0.017208163
222	0x3bafa8ed	0.0053607137
223	0xbcbb5c2f	-0.022871105
224	0x3ccd1e92	0.025038991
225	0xbd0af5d8	-0.03392586
226	0xbd9dc0a2	-0.077027574
227	0xbd6c79b9	-0.05773327
228	0xbda0f3df	-0.07859015
229	0xbc81e93e	-0.015858289
230	0xbd8d9f29	-0.06915123
231	0x3cf8f80a	0.030391712
232	0xbd311856	-0.0432361
233	0x3d905898	0.07048148
234	0xbd57d59e	-0.052693956
235	0xbd12acce	-0.03580933
236	0xbcb94388	-0.02261521
237	0x3c1e36a6	0.009656584
238	0x3bcd5388	0.006266061
239	0xbcae98ec	-0.021313153
240	0xbd86a818	-0.0657503
241	0xbc468353	-0.012116271
242	0x3bd386b6	0.006455268
243	0x3d42cf4b	0.04756097
244	0x3dcb738a	0.09934147
245	0xbd061016	-0.032730184
246	0xbc8addc8	-0.016951457
247	0xbcf039c6	-0.029324424
248	0x3d46ed8f	0.048566397
249	0x3d98c9d9	0.074603744
250	0xbd53c93f	-0.051705595
251	0xbd868237	-0.06567805
252	0xbd9262fe	-0.071477875
253	0xbc90c2c7	-0.017671002
254	0xbdfee2b1	-0.12445582
255	0x3c826aa0	0.015919983

fc_1.bias f4 [120]
0	0xbd4bf72f	-0.04979628
1	0x3b0c61f8	0.0021420699
2	0x3d45765f	0.04820859
3	0xbcea1bba	-0.028577674
4	0x3c815106	0.015785705
5	0xbcc8dc5b	-0.024519136
6	0x3b96dfce	0.0046043163
7	0x3b25efb8	0.0025319885
8	0xbda46147	-0.08026367
9	0x3d352c25	0.044231553
10	0x3d9e8e87	0.07742029
11	0x3cf0f26f	0.029412476
12	0xbc60147b	-0.013676758
13	0xbdbc8e1a	-0.09206791
14	0xba604e82	-0.00085566205
15	0x3c182c94	0.009287972
16	0x3a0de50e	0.0005412855
17	0x3c04455a	0.008073175
18	0x3c02f593	0.00799312
19	0x3cfec2df	0.031098781
20	0xbd2100df	-0.03930747
21	0x3d40ed88	0.047101527
22	0xbcdae3e2	-0.026719991
23	0x3d1af73c	0.037833437
24	0xbcb80930	-0.022465318
25	0x3d0ba421	0.034092072
26	0x3c84d1a2	0.016213242
27	0xbd8292ab	-0.06375631
28	0x3d98b2a2	0.074559465
29	0xb91f1119	-0.00015169791
30	0x3d672a1e	0.05643665
31	0x3af28eb5	0.0018505665
32	0xbbdc0895	-0.0067148902
33	0x3c97260c	0.01845076
34	0x3d4459f6	0.047937356
35	0x3c769a22	0.015051397
36	0x3da9cf41	0.08291484
37	0x3cad7a3c	0.02117645
38	0x3d2ccf13	0.04218967
39	0x3cbb789b	0.022884658
40	0xbd083b82	-0.033259876
41	0xbc8e76ce	-0.017390635
42	0xbd3aedc1	-0.045636896
43	0x3d3ba245	0.04580905
44	0xbcd77e91	-0.026305469
45	0x3c81fac6	0.015866648
46	0x3d6f6fa7	0.05845609
47	0xbc89f3df	-0.01683992
48	0x3c90e896	0.01768903
49	0x3d31aedc	0.04337965
50	0xbd8af4ac	-0.06784949
51	0x3ca32215	0.019913713
52	0x3cc28de8	0.023749307
53	0xbd11090a	-0.03540901
54	0x3cd1e20e	0.025620487
55	0x3d2263f7	0.039646115
56	0xbdac3938	-0.08409351
57	0xbd43aac3	-0.047770273
58	0x3a83f953	0.0010068811
59	0x3ba16aef	0.0049260776
60	0xbd34f918	-0.044182867
61	0x3d9aa856	0.07551639
62	0xbd7aea85	-0.06125881
63	0x3ca7cfa7	0.020484759
64	0xbd505b20	-0.050868154
65	0x3d8d44e5	0.06897906
66	0x3d3338ec	0.043755457
67	0xbd924700	-0.071424484
68	0xbd61c696	-0.055121027
69	0xbd40cf98	-0.047072977
70	0xbcf53653	-0.02993313
71	0xbcbfa829	-0.023395615
72	0xbb7a52ff	-0.0038196442
73	0x3c94ce07	0.018164648
74	0x3c95240f	0.01820567
75	0xbc1af437	-0.009457639
76	0xbd2765f9	-0.040868733
77	0xbd58304c	-0.052780434
78	0xbc643f38	-0.013931088
79	0x3d819c8c	0.06328687
80	0xbd63d5bc	-0.055623755
81	0x39e63b95	0.0004391341
82	0x3c982033	0.018570041
83	0x3dab78ea	0.08372672
84	0x3d24e0a9	0.040253315
85	0x3cb99b15	0.022656957
86	0x3dbb5265	0.09146575
87	0x3d0d56f5	0.034506757
88	0xbcf8dc12	-0.030378375
89	0x3ca6acb3	0.020346021
90	0x3d0fae3b	0.03507827
91	0xbcb56190	-0.022141248
92	0x3d283fa1	0.041076306
93	0xbd803de6	-0.06261806
94	0x3c9976cb	0.018733403
95	0x3d3813de	0.04494082
96	0xbd88a69f	-0.066724055
97	0xbcd483b4	-0.025941707
98	0xbc8bf702	-0.017085556
99	0x3d863f92	0.06555094
100	0xbd9ca9f4	-0.076496035
101	0x3c427e65	0.011870955
102	0x3c8a19c8	0.016857997
103	0x3d45443a	0.04816077
104	0xbc71834b	-0.014740775
105	0x3b09efeb	0.0021047543
106	0x3c8c7b0f	0.017148523
107	0x3d0ea993	0.034829687
108	0xbdb0b88b	-0.08628949
109	0x3c0fa518	0.008767389
110	0xbd6bb9a7	-0.0575501
111	0x3d87c62a	0.06629594
112	0xbd245c5d	-0.040127147
113	0xbd9e8b0c	-0.07741365
114	0xba7d13da	-0.0009654142
115	0x3d3e294d	0.046426106
116	0xbd820f1c	-0.06350538
117	0x3d35bdd7	0.0443705
118	0xbcfdc780	-0.030978918
119	0x3caf2df9	0.021384226

fc_2.weight f4 [84, 120]
0	0x3cb6d2f7	0.022317393
1	0xbe201773	-0.15633945
2	0xbc9471a2	-0.01812059
3	0xbced4a7e	-0.028966185
4	0x3df32136	0.11871569
5	0xbc89df0b	-0.016829988
6	0xbc819692	-0.015818868
7	0xbd423b25	-0.047419686
8	0xbd06e182	-0.032929905
9	0xbddf493a	-0.10902639
10	0xbdc3b277	-0.09555524
11	0xbd45c098	-0.048279375
12	0x3e16c1a8	0.14722311
13	0x3be6113d	0.007021098
14	0xbc314e9f	-0.010821967
15	0xbe082823	-0.13296561
16	0x3d3d3acf	0.046198662
17	0xbd62668c	-0.055273578
18	0x3de6c9ce	0.1126896
19	0x3deaace1	0.11458755
20	0x3d062c74	0.032757238
21	0x3d113abf	0.035456415
22	0xbd808c45	-0.06276754
23	0xbd562936	-0.052285396
24	0xbd87038f	-0.065924756
25	0x3e02daf1	0.12778832
26	0xbe6fe47b	-0.23427002
27	0x3d6c620d	0.057710696
28	0x3e55bac3	0.20872025
29	0xbc9dc14d	-0.019257212
30	0x3d409e9d	0.047026265
31	0xbd30c04f	-0.04315215
32	0x3c5b5ea7	0.013389266
33	0xbce589a1	-0.028019728
34	0xbd83e089	-0.06439311
35	0x3e27faf2	0.16404322
36	0xbd80faf8	-0.062978685
37	0x3da44f94	0.08022991
38	0xbd26531d	-0.040606607
39	0xbd67daa4	-0.056604996
40	0x3b8db2dd	0.0043243007
41	0xbcedc9b2	-0.02902684
42	0x3dbfb1d9	0.093600936
43	0x3dc00601	0.09376145
44	0xbe0348a7	-0.12820683
45	0x3dfee56a	0.12446101
46	0xbd6411c2	-0.055680998
47	0x3db456d9	0.088056274
48	0xbda51b3e	-0.08061837
49	0x3c3e63c9	0.01162047
50	0x3dbf49b6	0.09340231
51	0xbc2b32ce	-0.0104491245
52	0x3e0a7c84	0.13524061
53	0x3da32e2c	0.07967791
54	0xbdbaf13f	-0.09128045
55	0xbe0b71b9	-0.136176
56	0xbdba8068	-0.09106523
57	0x3c846f90	0.016166478
58	0xbd152ecd	-0.036421586
59	0xbdb3ac2b	-0.08773073
60	0xbd018f51	-0.031630818
61	0xbdc2e289	-0.095158644
62	0xbe112848	-0.14175522
63	0x3d619db5	0.05508204
64	0x3dcfd914	0.10148826
65	0xbd07bcdb	-0.03313909
66	0xbd4ffb25	-0.05077662
67	0xbd8c79d9	-0.06859178
68	0xbd85911a	-0.065218166
69	0x3b240ab3	0.0025030791
70	0xbc3c52dd	-0.0114943655
71	0x3e6e3adf	0.23264645
72	0xbdb09456	-0.08622043
73	0xbcde8c69	-0.027166562
74	0xbdaa720f	-0.08322536
75	0xbe103b38	-0.1408509
76	0x3d6be800	0.0575943
77	0xbc975233	-0.018471813
78	0xbc2f8f40	-0.010715306
79	0x3d58f9cc	0.0529726
80	0x3d5d083e	0.05396294
81	0x3b86ec40	0.0041175187
82	0xbe4228d7	-0.18960892
83	0xbd21ee75	-0.03953405
84	0xbdd16908	-0.10225111
85	0x3cafc8f0	0.02145812
86	0x3d349796	0.044089876
87	0xbc41d4b8	-0.011830501
88	0x3d94a9f3	0.07258978
89	0x3d858b0a	0.0652066
90	0xbbe02c3f	-0.006841212
91	0x3de39872	0.11113061
92	0xbda0d45b	-0.078530036
93	0x3e2275be	0.15865228
94	0x3d49b042	0.04924036
95	0xbdbcdcb9	-0.09221787
96	0x3d6e95d8	0.05824837
97	0x3c9f1cd7	0.019422932
98	0xbdb643e8	-0.08899671
99	0xbe1a6d4e	-0.15080759
100	0xbc753110	-0.014965311
101	0x3d3d7334	0.046252444
102	0x3d0103fd	0.031497944
103	0x3dd29664	0.10282591
104	0xbdc7b2df	-0.09750914
105	0xbcda64af	-0.026659338
106	0xbd9acff2	-0.07559194
107	0xbd7589b1	-0.059945766
108	0xbd28c6bc	-0.041205153
109	0x3d575f06	0.052580856
110	0xbb9c8f95	-0.0047778585
111	0xbd6772fe	-0.05650615
112	0xbddc6077	-0.10760587
113	0xbe2d3621	-0.1691518
114	0xbd3ff020	-0.04685986
115	0xbd5d31c0	-0.054002523
116	0xbd25ee0b	-0.04051022
117	0xbd9fa78c	-0.07795629
118	0x3cfd78db	0.030941417
119	0x3e1910a1	0.1494775
120	0x3df555fa	0.11979289
121	0xbd3f1f05	-0.046660442
122	0xbd7c6d88	-0.061627895
123	0xbdd20176	-0.10254185
124	0xbd64cd23	-0.055859696
125	0xbda65afd	-0.081228234
126	0xbdf4b97d	-0.119494416
127	0xbc630be9	-0.01385782
128	0x3d75efc3	0.060043108
129	0x3d07b772	0.03313393
130	0xbe1385ce	-0.14406511
131	0xbbd968df	-0.006634816
132	0x3e0a7195	0.1351989
133	0x3c76fe9e	0.015075354
134	0xbcaacd28	-0.02084978
135	0x3dbaa12e	0.09112774
136	0xbd010b6d	-0.031505037
137	0x3e1728c3	0.14761643
138	0xbcf4227a	-0.029801596
139	0x3d362b4c	0.044474885
140	0x3e251acd	0.16123505
141	0x3dc10ccd	0.0942627
142	0x3ce5ea44	0.028065808
143	0x3dc6b3b8	0.097022474
144	0x3e0b45d9	0.13600864
145	0xbe0acaf6	-0.13553986
146	0x3db42206	0.08795552
147	0x3dc52d11	0.09627736
148	0xbdde28fc	-0.10847661
149	0xbddba2ba	-0.10724397
150	0x3d4910ae	0.049088173
151	0x3d48a587	0.048985984
152	0x3dfacb89	0.122458525
153	0x3d460a7d	0.048349846
154	0xbdeeea63	-0.116657995
155	0xbe0e0d84	-0.13872343
156	0xbded2c8a	-0.11580761
157	0x3c8145c1	0.015780332
158	0x3d91e849	0.07124383
159	0x3d7fe0f9	0.06247041
160	0x3dea6d30	0.11446607
161	0x3e014ac0	0.12626171
162	0x3d8c90dc	0.06863567
163	0xbd443470	-0.04790157
164	0x3d1bfa03	0.038080227
165	0xbd484183	-0.0488906
166	0xbccfba0a	-0.025357265
167	0xbd0c4bd3	-0.034252
168	0x3b920b69	0.0044569266
169	0xbba6249a	-0.005070281
170	0x3d80134f	0.06253683
171	0xbd839207	-0.06424337
172	0x3dd7d612	0.105388775
173	0x3d61e67c	0.055151448
174	0x3d60f55f	0.054921504
175	0xbc606a27	-0.013697184
176	0x3e12ec05	0.14347847
177	0x3d0762ae	0.033053093
178	0x3c57f2ca	0.013180444
179	0x3d14810b	0.036255877
180	0xbd7f0c4d	-0.06226759
181	0xbdb06013	-0.08612075
182	0x3d9aefd4	0.07565275
183	0x3c8821b7	0.016617639
184	0xbdc2c73e	-0.09510659
185	0x3d80b3e7	0.06284314
186	0x3d811eb7	0.063046865
187	0x3cfbf780	0.030757666
188	0x3db12f24	0.086515695
189	0xbcac0460	-0.02099818
190	0xbd8d9620	-0.069134
191	0x3d8864f5	0.06659881
192	0xbdd8e35f	-0.105902426
193	0xbd0bdd23	-0.03414644
194	0xbc494389	-0.012284168
195	0xbaea05ec	-0.0017854548
196	0x3df0bf1e	0.11755203
197	0xbcfea057	-0.031082315
198	0x3e05c628	0.13063872
199	0x3d958990	0.073016286
200	0xbd3725f5	-0.044713933
201	0xbdcc6b51	-0.099814065
202	0x3e64509e	0.22296378
203	0xbdaa47b6	-0.08314459
204	0xbd5d6c67	-0.05405846
205	0xbe24b369	-0.16084065
206	0xbe0b5b76	-0.13609108
207	0x3dc950ba	0.098298505
208	0x3d14c8cd	0.03632431
209	0xbd327657	-0.04356989
210	0xbde14878	-0.110001504
211	0x3e10e8a3	0.14151244
212	0x3d244ba0	0.040111184
213	0x3e0903cf	0.13380359
214	0x3c574b2f	0.013140484
215	0xbdb6a7f2	-0.08918752
216	0x3d8d1061	0.0688789
217	0xbd3d0f1a	-0.04615698
218	0x3d045ea3	0.032316815
219	0x3b237b74	0.002494541
220	0xbda24626	-0.07923536
221	0xbae47381	-0.0017429442
222	0x3dbfae8c	0.09359464
223	0xbcc204e9	-0.023683982
224	0x3d8fba63	0.07017972
225	0x3dc9b9ab	0.098498665
226	0x3d6dfe5a	0.058103897
227	0xbe152ce8	-0.14567912
228	0xbd96b671	-0.07359017
229	0x3d97654d	0.073923685
230	0x3de5dd0c	0.11223802
231	0xbd6d7a77	-0.05797812
232	0x3d85ddbd	0.06536434
233	0x3dcd1fa9	0.10015804
234	0xbd227efc	-0.039671883
235	0xbdb045e6	-0.08607082
236	0x3b70a408	0.0036718864
237	0xbc5170b8	-0.012783222
238	0x3d4d6066	0.05014076
239	0x3d04c520	0.032414556
240	0x3dadf16a	0.08493312
241	0xbdac4a0c	-0.08412561
242	0xbda9296a	-0.08259852
243	0xbd1e9bca	-0.03872279
244	0x39755709	0.00023397444
245	0xbdeb3d17	-0.11486261
246	0x3d84b642	0.064800754
247	0x3e031e5a	0.12804547
248	0x3dca9edc	0.09893581
249	0x3e13bbcb	0.14427106
250	0xbdb357df	-0.087569945
251	0xbd84d7b2	-0.06486453
252	0xbd04b75e	-0.032401435
253	0x3d90e66f	0.07075202
254	0x3dc47699	0.09592933
255	0x3c668074	0.014068712

fc_2.bias f4 [84]
0	0xbc5bb23c	-0.013409194
1	0xbd87a1f3	-0.06622686
2	0xbd83f008	-0.06442267
3	0xbd18c3eb	-0.037296217
4	0xbdcf3220	-0.101169825
5	0x3aa1f9f9	0.0012357823
6	0xbcc4f8aa	-0.024044354
7	0x3cce9c83	0.025221115
8	0xbd4002be	-0.046877615
9	0x3d23d7d6	0.04000076
10	0x3dafd66b	0.08585819
11	0xbb0bdceb	-0.0021341394
12	0xbd9df663	-0.0771301
13	0xbb94d28c	-0.0045417007
14	0xbd9cd798	-0.07658309
15	0xbd36cc21	-0.044628266
16	0xbcc2cd81	-0.023779633
17	0x3ddfaf57	0.10922115
18	0x3ca64e50	0.020301014
19	0xbd54080f	-0.051765498
20	0x3d040151	0.032227818
21	0xbb7e577b	-0.0038809467
22	0x3d4c1517	0.0498248
23	0x3d7a5398	0.061114877
24	0xbdb2973d	-0.08720253
25	0xbc0dc9af	-0.008654042
26	0xbd8b4d7f	-0.068018906
27	0x3dc5a831	0.096512206
28	0x3bcdd32d	0.0062812776
29	0xbd368aeb	-0.044566076
30	0xbdcc26b5	-0.0996832
31	0xbe00d338	-0.12580574
32	0xbd417c40	-0.047237635
33	0x3b0b0fe7	0.0021219195
34	0xbd549a8b	-0.051905196
35	0x3cf378d6	0.029720705
36	0xbdc890d2	-0.09793247
37	0xbc8abdc8	-0.016936198
38	0xbd94e406	-0.072700545
39	0xbd9678cd	-0.0734726
40	0x3d7dd73c	0.06197284
41	0x38e413d4	0.000108755805
42	0xbda56141	-0.0807519
43	0x3d86e0a7	0.06585818
44	0x3db06179	0.086123414
45	0xbc33baba	-0.010969812
46	0xbcec9c8b	-0.02888324
47	0x3cd02962	0.025410358
48	0x3d4f7a14	0.050653532
49	0xbd9611e3	-0.0732763
50	0x3cf3bd04	0.029753216
51	0x3d6ba0f0	0.05752653
52	0xbd49f96c	-0.049310133
53	0x3d352831	0.044227783
54	0x3d85581c	0.06510946
55	0x3da6a1cc	0.08136329
56	0xbd7cd1e9	-0.061723623
57	0xbc9ed5d0	-0.019389063
58	0x3da050df	0.07827925
59	0xbc91c0b8	-0.01779209
60	0x3ce35670	0.027751178
61	0xbcfc0b1b	-0.030767014
62	0xbd9730d1	-0.07382358
63	0xbd93641c	-0.07196829
64	0x3d77b179	0.060471985
65	0xbd87807a	-0.06616302
66	0x3c29b633	0.010358381
67	0x3b8af1de	0.0042402586
68	0x3df1573f	0.11784219
69	0x3e0abdb7	0.13548933
70	0xbb888531	-0.0041662683
71	0x3d23c611	0.039983813
72	0xbd7a10fb	-0.06105135
73	0xbbc5c1ff	-0.006035089
74	0xbd2894f4	-0.041157678
75	0xbdce82f5	-0.10083572
76	0xbd95c4ea	-0.07312949
77	0x3d9cc5ec	0.07654938
78	0x3d6d52ab	0.057940166
79	0x3d9841bc	0.07434413
80	0x3d41f1c8	0.04734972
81	0xbd8cafca	-0.068694666
82	0xbc8639b3	-0.016384935
83	0xbd0f1e4d	-0.034941006

fc_3.weight f4 [10, 84]
0	0xbdfc5239	-0.1232037
1	0xbe2b0f18	-0.16704977
2	0x3d3fc8e8	0.04682246
3	0x3da8267b	0.082104646
4	0x3dfeceb5	0.1244177
5	0xbd3e719d	-0.04649507
6	0x3db0e770	0.08637893
7	0x3cc9042c	0.024538122
8	0x3dc8ea9b	0.098103724
9	0x3dd844c4	0.10559991
10	0x3da0c3e2	0.07849862
11	0xbcdb3958	-0.026760742
12	0x3e2b319c	0.16718143
13	0xbdc7017b	-0.09717079
14	0x3dbe2aac	0.09285483
15	0x3b328519	0.0027239977
16	0x3d8008c6	0.062516734
17	0xbe36b68f	-0.17843078
18	0x3d08b353	0.033374142
19	0x3e1c282c	0.152497
20	0x3d663ae6	0.056208514
21	0x3d9c3e64	0.076290876
22	0x3ce9f306	0.028558265
23	0xbe1a74e0	-0.15083647
24	0x3e080033	0.13281326
25	0xbe406202	-0.18787387
26	0x3daba818	0.08381671
27	0xbe174595	-0.14772637
28	0x3dcb3aec	0.09923348
29	0x3d0eb246	0.034837984
30	0x3d3c3336	0.045947276
31	0xbbee223e	-0.0072672656
32	0xbe1faabb	-0.15592472
33	0x3d5ef313	0.054431032
34	0x3c7fd79a	0.015615368
35	0xbdc8b5eb	-0.09800323
36	0x3c0f2df8	0.008738987
37	0x3e131e1a	0.14366952
38	0xbdca5d50	-0.09881079
39	0xbd9c17ff	-0.076217644
40	0x3d590aa0	0.05298865
41	0x3de98d6d	0.11403928
42	0xbd476fce	-0.04869061
43	0xbde75a0f	-0.11296474
44	0xbdcce8a2	-0.10005309
45	0x3e2594d6	0.16170058
46	0xbdf6e6df	-0.12055754
47	0xbe0d226a	-0.13782659
48	0xbd54ba78	-0.051935643
49	0x3c65b4a6	0.014020121
50	0x3de4cbfc	0.111717194
51	0x3c77777c	0.015104171
52	0xbdcd61bd	-0.10028408
53	0xbd7ac98e	-0.061227374
54	0x3de2f817	0.11082476
55	0xbcd3c2d0	-0.02584973
56	0x3cc2ff7a	0.023803461
57	0xbdaa0289	-0.08301265
58	0xbe1f67b0	-0.15566897
59	0x3c80f5a2	0.015742127
60	0x3e27c50b	0.1638376
61	0x3cac716a	0.021050174
62	0x3d343d17	0.044003572
63	0x3e2ae4c8	0.16688836
64	0xbc6ad4cf	-0.014332964
65	0x3e12f6c3	0.14351945
66	0xbe1d1bc4	-0.15342623
67	0x3dce23ac	0.100653976
68	0xbcd72cc1	-0.026266458
69	0xbd946940	-0.07246637
70	0x3e2e8956	0.17044577
71	0xbcb068a3	-0.02153427
72	0xbe194b1d	-0.1497006
73	0x3dcc04cd	0.09961853
74	0xbcb9279a	-0.022601891
75	0xbdb03f14	-0.08605781
76	0xbdcc73e6	-0.099830434
77	0xbd992e2a	-0.07479508
78	0x3dd15f46	0.1022325
79	0xbe1566d6	-0.1459001
80	0xbe129a1a	-0.14316598
81	0x3d8b929a	0.068150714
82	0x3d5ffeaa	0.054686226
83	0x3def2f75	0.116789736
84	0x3e12eee2	0.14348939
85	0x3e22001c	0.15820354
86	0x3e257f0c	0.16161746
87	0x3d6f2461	0.058384303
88	0x3da9cf27	0.08291464
89	0x3d9b5366	0.07584266
90	0x3dfd14c3	0.123574756
91	0xbdedc705	-0.116102256
92	0xbe4b8146	-0.19873533
93	0x3dc8c7f8	0.09803766
94	0x3da75f15	0.08172432
95	0xbd0a1f17	-0.033721056
96	0xbdd6db84	-0.10491088
97	0xbe22dc89	-0.1590444
98	0xbdbf42a6	-0.09338884
99	0xbda4738b	-0.080298506
100	0xbd800715	-0.06251351
101	0x3c15ef05	0.009151225
102	0xbd38418a	-0.044984378
103	0xbdcefda6	-0.10106973
104	0xbe2aebda	-0.16691533
105	0xbdb72a63	-0.089436315
106	0xbaf1e816	-0.0018456008
107	0x3dba9038	0.09109539
108	0x3d70ffba	0.05883763
109	0xbc2b930a	-0.010472069
110	0xbdd09130	-0.10183942
111	0xbe3bf01f	-0.18353318
112	0xbe2c3aaa	-0.16819254
113	0xbc1404db	-0.009034361
114	0x3e54ff2e	0.20800468
115	0x3dfb4797	0.12269514
116	0xbdd1a9e0	-0.10237479
117	0xbe23fe23	-0.16014914
118	0x3d0d399a	0.03447876
119	0x3d90f9f3	0.07078924
120	0x3d08f2c1	0.033434633
121	0x3dc274c8	0.094949305
122	0xbc7953eb	-0.0152177615
123	0x3e13f762	0.14449838
124	0x3d4891bb	0.048967104
125	0x3dfe4c25	0.12416867
126	0x3db0ca45	0.0863233
127	0x3c350dab	0.011050622
128	0xbd51b3b1	-0.051196758
129	0xbe3e6bec	-0.18595856
130	0x3cd0ae21	0.025473656
131	0xbd69f4ed	-0.057118345
132	0x3e00dc0f	0.12583946
133	0x3d5b9e9e	0.053618066
134	0x3deef61c	0.116680354
135	0xbe168e41	-0.14702703
136	0x3e24e0db	0.161014
137	0xbe1edb28	-0.15513289
138	0xbd854e6b	-0.06509098
139	0xbde7cf19	-0.113187976
140	0x3d615f81	0.05502272
141	0x3b6e628b	0.0036374654
142	0x3dd5d12e	0.104402885
143	0x3c5a9a96	0.01334252
144	0x3d8ac7ba	0.06776376
145	0xbe218a51	-0.1577542
146	0x3e00c68b	0.12575738
147	0xbe1eb4b1	-0.15498616
148	0xbdab9534	-0.083780676
149	0xbc8028c1	-0.015644433
150	0x3d092107	0.033478763
151	0xbe27c57e	-0.16383931
152	0xbe3b1aae	-0.18271896
153	0xbdf8a42d	-0.12140689
154	0x3ded7931	0.11595381
155	0xbdd09880	-0.10185337
156	0xbd32b13f	-0.043626066
157	0xbe079d4a	-0.13243595
158	0x3e23bc72	0.15989855
159	0x3d638300	0.055544853
160	0x3b80762c	0.003920337
161	0x3da6c0d6	0.08142249
162	0xbe1557a8	-0.1458422
163	0x3d5e985f	0.05434453
164	0xbd370435	-0.044681747
165	0x3e3d3e13	0.1848071
166	0xbd8eb2b4	-0.06967679
167	0x3dd6d8e3	0.104905866
168	0x3e13c125	0.14429148
169	0xbce88553	-0.028383886
170	0xbe1f9b27	-0.1558653
171	0xb919130a	-0.0001459831
172	0xbdda5e21	-0.10662485
173	0xbe26d2a8	-0.16291296
174	0x3de88098	0.11352652
175	0xbdec6cf3	-0.11544218
176	0xbd8a86a6	-0.067639634
177	0x3cacf1e0	0.021111429
178	0xbdc061c3	-0.093936466
179	0xbe0a8a81	-0.13529398
180	0xbcd29e12	-0.02571014
181	0x3dd93f77	0.10607808
182	0x3d83f7ec	0.06443772
183	0x3deb13dc	0.11478397
184	0x3da59fbc	0.080871075
185	0xbd388e2c	-0.04505746
186	0xbd91455e	-0.07093309
187	0xbdf72e2d	-0.12069354
188	0x3cebcf1f	0.028785286
189	0x3da87aba	0.08226533
190	0xbd9d0323	-0.07666614
191	0xbd134287	-0.035952117
192	0xbd2191ba	-0.039445616
193	0xbdf4f1e8	-0.119602025
194	0xbc1cda2d	-0.009573502
195	0xbe28200d	-0.16418476
196	0x3d983c22	0.074333444
197	0xbdc84ebe	-0.09780644
198	0xbce6d110	-0.02817586
199	0xbd610da8	-0.054944664
200	0x3e17374b	0.14767186
201	0x3dc19746	0.09452681
202	0x3e0b04ef	0.13576101
203	0xbdd49120	-0.10379243
204	0x3dc24e38	0.09487575
205	0xbd895b01	-0.06706811
206	0x3e01c374	0.12672216
207	0x3dc3dba6	0.09563379
208	0xbdc7e502	-0.09760477
209	0x3d9b6ba7	0.075888924
210	0xbbd7de78	-0.0065877996
211	0xbdce52e5	-0.100744046
212	0xbe13e9f5	-0.14444716
213	0xbe0940fa	-0.13403693
214	0xbdf8c261	-0.1214645
215	0xbdde874d	-0.1086565
216	0x3c492dbc	0.01227897
217	0x3e17d5df	0.14827679
218	0xbe14e00f	-0.14538597
219	0xbe34b18b	-0.17645852
220	0xbd416420	-0.047214627
221	0x3dfbd4cc	0.12296447
222	0x3d10740e	0.03526693
223	0xbe084885	-0.13308914
224	0xbc82c8cf	-0.015964894
225	0x3c14bdc5	0.009078448
226	0xbd8c9e0d	-0.06866083
227	0x3d7b9a98	0.06142673
228	0xbe12b2c2	-0.14326003
229	0xbdade613	-0.08491149
230	0xbd392231	-0.045198623
231	0x3d88784c	0.0666357
232	0xbdf02c74	-0.11727229
233	0x3cead255	0.028664747
234	0x3de931ad	0.11386428
235	0xba48c3dc	-0.000765858
236	0xbe3a2fda	-0.18182316
237	0xbd0ebedb	-0.034849983
238	0xbd8cdd7c	-0.06878182
239	0xbe1a798a	-0.15085426
240	0xbdbb2344	-0.09137586
241	0x3e066b2b	0.13126819
242	0xbc57b37f	-0.013165354
243	0x3e3af3db	0.18257086
244	0x3d3f3fe7	0.0466918
245	0xbd3cf730	-0.046134174
246	0xbd392236	-0.04519864
247	0xbe0ecc80	-0.13945198
248	0xbcb3a773	-0.021930432
249	0xbd21e2ca	-0.039522924
250	0xbb112d2e	-0.0022152173
251	0x3de0604b	0.109558664
252	0x3cdb3761	0.026759805
253	0xbd8b27aa	-0.06794675
254	0xbbd97bf9	-0.006637093
255	0x3dd21a98	0.102589786

fc_3.bias f4 [10]
0	0xbd8f5246	-0.06998114
1	0xbd9c0b4a	-0.07619341
2	0xbd8be555	-0.06830851
3	0xbc937078	-0.017997965
4	0x3b8bed05	0.0042701983
5	0x3db867b6	0.09004156
6	0xbdc2e6e6	-0.09516697
7	0xbdba2810	-0.090896726
8	0x3d99c7ca	0.0750881
9	0xbd74d1ba	-0.059770323
